model/actor.pkl (torch_old, 140788 bytes, 6 tensors)

weight f4 [128, 4]
00000000: 2be8 3a3c 35b9 e7be 2911 4abc 95d4 263e
00000010: d51a 93be c168 e0be 6b24 863e a980 743e
00000020: e641 3d3e 9e54 b1be 37fd 533e 6eb5 d7be
00000030: 082d 343e 9726 cd3d 8a41 a23e fd0e 973e
00000040: 91b7 a23d 0a05 fcbd d814 f6be 3caa 5dbe
00000050: 533a 4d3e 2288 9fbd 9e0b 9abd a268 b1be
00000060: d178 c3be 24a7 babe b9d0 ae3d cce6 323c
00000070: 58b5 a9bd 6356 443e 6ccb 723e ab49 823e
00000080: 4f72 bdbe ae35 5ebe 99ff ee3e 3bbb 443c
00000090: ce28 943e 1c4f 063f a869 8bbe aaad e43e
000000a0: 4cf1 07be 3381 ac3e d7f7 49be 75bc d7be
000000b0: b437 2a3e 34f5 9fbe a308 373e 7373 86be
000000c0: 6047 8b3e c4bc 393e efe4 69bc 1c0e bf3e
000000d0: c0cf a8bd 7a9e 23be 407a c03e a7b5 483e
000000e0: 5991 0cbe 136d 40be 3a78 453e d890 debe
000000f0: 157c 90bc 7326 f9be c100 9dbd 243a fcbd
00000100: ece5 3bbd b6b2 013f 8c12 963c 9c14 953e
00000110: 8b85 1bbe 4907 293d 75cd 43be 8584 e0bc
00000120: f27b b63d b9fb e1be 710d 0dbf e2ab 9bbe
00000130: afb6 183e 29df c03e 21fb 543e 5a48 90be
00000140: 7a87 c33e 6e91 933e 48da 193e b8b4 bf3c
00000150: 81b1 5f3e 2c3c c93e 9f28 023f c561 923e
00000160: aba2 733e 5ba7 aabe a304 583c af54 e13e
00000170: 2e90 033f dcea e43e d100 a23d c563 553e
00000180: c77f 783e 858b 57be 3d14 92bc fac3 5f3e
00000190: aa4f c7bd ac44 b93e d6fa 3dbe 985c a83e
000001a0: 5ce8 35be 6dfa 8a3e 6d87 afbe a49a b03e
000001b0: c1d0 ce3e d861 4bbe dbe6 d2be 435e c03e
000001c0: 02cc d4be 25aa 66be cda5 21be 222b c63e
000001d0: eed4 e63d 84f2 e1be 619c 6ebe 68a5 81be
000001e0: 7d13 be3e ddce e8be 017e 6e3e 6925 45be
000001f0: 382a 27be 56a5 443e b540 2ebe 5bbe 01bf
00000200: 6c9a bdbe b54e 453e c07b c0be 190b 03bf
00000210: 6e75 923e 1537 25be a0a9 99be 1761 9d3e
00000220: 9862 843d 34f6 2ebe e8a5 e0be f8bf 6abe
00000230: 6501 34be 969d b7bd d7c0 89be bc2b af3b
00000240: be0b dabe fa59 a33e 234b c3be dd4d f9be
00000250: c506 1e3e 71e1 40bd 0ec8 7b3e 4209 bdbe
00000260: db88 7fbe 5167 8c3d f7a0 93bc c95b c3be
00000270: 86ad 1fbe 224d c9be f9ca 503e 6a07 05bd
00000280: 5eb6 1ebd 41a0 eb3e 96db 4cbe 6835 4f3e
00000290: 0359 d1bc d256 603e c968 86be 1443 6b3e
000002a0: 812e 193e 9b7f 59bd f5a8 933e 13bf 5f3e
000002b0: c859 2e3e 1b6c a53e 4256 613e b70a f83e
000002c0: 1b5c 803e c2a8 59be cd43 123e df4b d3be
000002d0: a703 9bbe 851b 2c3d 8e79 513e 2828 433e
000002e0: 0e1a b7be aaa9 c9be 2276 4bbd bb63 92be
000002f0: 8392 3d3e fca0 10be bb81 393e 7046 7cbe
00000300: 860c 02bf 9597 d2be 42a3 cbbe b1dc d7be
00000310: 9894 dbbe 76fd 75be eb2e a0be 9c65 a73e
00000320: b007 2b3e 5704 c93e 6e7c 8a3e 25de 81be
00000330: b07d c13e 689f 893d f470 18be 32ce 903c
00000340: ee21 7f3e 7069 91be 59ad 093e 5d2e e53e
00000350: c39b f73d 5277 03bf e923 8d3d c794 ddbe
00000360: bb31 d1be 98b1 adbe cf04 a4be 82c4 06bf
00000370: 2e4e 183e f13f cebe d409 f03e 8917 9abd
00000380: 14da 773e 5696 6d3e 58cd 09bf 1198 5dbe
00000390: 1f9f e83e b62e f7be f35b ff3d 6429 efbe
000003a0: 94c2 db3e 7090 b7be 0e49 be3d 78f9 5cbd
000003b0: 464f babe aa26 52be 4878 11bf cf1c 0bbf
000003c0: 1d24 c03d 9f3b d1be e0d7 3ebc d848 b5be
000003d0: 204f 97be 3e80 eabe c288 af3e 63c6 c7be
000003e0: 2d2e 033e b245 203e 440d be3e e403 70be
000003f0: a1ca be3d b80f f4bd 1300 343c fc06 8b3e
0.011407892 -0.4525849 -0.012333193 0.16292031 -0.2873141 -0.4382992 0.2619966 0.23877205
0.1848217 -0.3463487 0.20702063 -0.42130607 0.17595303 0.10017126 0.31690627 0.29503623
0.07945169 -0.123056486 -0.48062778 -0.2164697 0.2004178 -0.07789637 -0.07521747 -0.3465014
-0.38178113 -0.36455643 0.085359044 0.010919284 -0.08286542 0.19173579 0.23710412 0.2544683
-0.37001273 -0.21700165 0.4667938 0.01200753 0.28937382 0.5246446 -0.27229047 0.44663745
-0.13275641 0.3369232 -0.1972345 -0.4213597 0.16622812 -0.31241763 0.17874388 -0.26259956
0.27202892 0.18138415 -0.014275773 0.37315452 -0.0824275 -0.15978423 0.3759327 0.19600545
-0.1372732 -0.18791609 0.19284144 -0.43469882 -0.017637292 -0.48662147 -0.076661594 -0.12315777
-0.045873567 0.50663316 0.01831939 0.29117286 -0.15187661 0.041266713 -0.19121344 -0.02740694
0.089103594 -0.44137362 -0.55098635 -0.30404574 0.14913438 0.37670258 0.20798923 -0.281802
0.38189298 0.28821892 0.15024674 0.023401603 0.21845056 0.3930372 0.5084323 0.28590217
0.23792522 -0.33330807 0.013184699 0.4400992 0.51391876 0.44710433 0.07910312 0.2083884
0.24267493 -0.21049316 -0.017831916 0.21852103 -0.097319916 0.36185205 -0.18552718 0.32883143
-0.1776442 0.27144185 -0.3428301 0.3449298 0.40393642 -0.19861543 -0.41191754 0.37571916
-0.41561896 -0.22525842 -0.15785904 0.38704783 0.11271082 -0.44130337 -0.23301841 -0.25321507
0.37124243 -0.45470324 0.23290254 -0.19252552 -0.16324699 0.19203696 -0.17016871 -0.50681084
-0.37031877 0.19268306 -0.37594414 -0.5118881 0.28605217 -0.16134293 -0.30012226 0.30738136
0.06464118 -0.17086107 -0.43876576 -0.22924793 -0.17578657 -0.08965604 -0.26904938 0.0053457897
-0.42587084 0.31904584 -0.38143262 -0.48692217 0.1543227 -0.047089998 0.24588034 -0.36921126
-0.2495455 0.068556435 -0.01802109 -0.38155964 -0.15593538 -0.3931666 0.20389928 -0.032477774
-0.038748138 0.46020702 -0.2000564 0.20235217 -0.02555514 0.2190812 -0.2625182 0.22974807
0.14959146 -0.05310021 0.2883984 0.21850233 0.17026436 0.3230904 0.22005561 0.48445675
0.2507027 -0.21255782 0.14283676 -0.41268823 -0.30276224 0.042018432 0.20456526 0.19058287
-0.35762066 -0.39387256 -0.049673207 -0.28591713 0.18512921 -0.1412391 0.18115894 -0.24636245
-0.5080036 -0.41131273 -0.39772993 -0.42160562 -0.42886806 -0.24022469 -0.31285796 0.3269471
0.16702151 0.39261124 0.27048057 -0.25364795 0.37791204 0.067198575 -0.14886838 0.017676447
0.24915287 -0.28400755 0.13445033 0.44761935 0.12090256 -0.51353943 0.06891615 -0.4327757
-0.40858254 -0.33924556 -0.3203492 -0.526436 0.14873573 -0.40283158 0.46882498 -0.0752402
0.24204284 0.2320188 -0.53828955 -0.2164004 0.454339 -0.48277825 0.1246871 -0.46711266
0.4292189 -0.35852385 0.09291278 -0.05394885 -0.36388606 -0.20522562 -0.5682416 -0.54340833
0.09381888 -0.408658 -0.011648148 -0.35407138 -0.29552555 -0.45800966 0.34284025 -0.39018545
0.12810583 0.15651587 0.37119496 -0.23438984 0.09315992 -0.119170606 0.010986346 0.27153766

bias f4 [128]
00000000: 4f05 ccbd 8400 fd3c 8960 d3bd 28d0 853e
00000010: 23a8 133c 7144 60be 1b8a edbe eb6c 993c
00000020: 855f 72be 99e4 ebbe e10a bf3e c229 f2be
00000030: f4fe 503e b25e ab3e b8a0 e7be 7d08 0dbd
00000040: 2bc6 acbd eac1 7a3e 8213 b03e 3e9d 95be
00000050: 088c 8a3e a277 94be 36fb c53d 88b3 14be
00000060: 64ec d13e e61e ef3e e511 a2be 1433 f43e
00000070: dda5 b8be 61b2 c93e 8f8c dd3e 7a60 60be
00000080: d44f 26be ce74 6e3e ac7e f3be 166f 7bbe
00000090: a870 d43e dc66 f2bd bf55 eabd 6a8c 623e
000000a0: c6b4 cabe 2e72 aebe 9aef c4be 9ebd 6c3e
000000b0: e175 7b3e f711 a7bc b69c f73e e7fe c4be
000000c0: 4198 88be 88b9 b8be 1955 f4be f70b 6bbe
000000d0: fa3b 093e 4b11 ec3e 2e9b c63e efdd fa3e
000000e0: 3a55 f23e f834 313c bdc1 f1be dac3 b13e
000000f0: 379b 35be f34f 9bbe d64c fbbe accb b9be
00000100: 7a03 cc3e cf19 15be 566e a4bc a504 9b3e
00000110: 4668 9b3d cc09 d83e c75e eb3d a41d d7bd
00000120: 5795 8cbe ffeb d6be 943c 353e 94b6 dabe
00000130: c4b1 5abe 3e9e 96be b07b c3be 5899 ef3a
00000140: 2c8f 743d 3d3a 3c3e ef8b f3be 0521 a7bd
00000150: 5d7d 063c 72c3 ebbd c777 b2be 7b26 8fbe
00000160: 346d 773e 3bbd 1f3e eea1 3abe 3cf2 55be
00000170: 7622 90be e414 0cbe fb8f 4cbe ca79 9d3d
00000180: a4a2 7fbe b1e2 87bd 97ae b4be 6117 553e
00000190: 5fb5 39be fcb0 393e 6b65 923d fac0 85be
000001a0: 9cfb 2a3d cbf9 64be 55ed 97be 048a 373e
000001b0: b268 b1be f2c6 e7be 5b10 85be 6774 acbe
000001c0: 7555 853d 9ec9 0b3e 68a8 033b 6430 05be
000001d0: a791 323e cfef e83d bbeb 5bbe e471 893e
000001e0: 619c c5be 7601 8f3e 1af2 4d3e a71c 063e
000001f0: 5628 66be 4c35 ccbe 907f 84be f22c 8cbd
-0.0996195 0.030884035 -0.10321147 0.26135373 0.009012255 -0.21901108 -0.4639443 0.018728694
-0.2366925 -0.46072844 0.37312987 -0.47297484 0.20409757 0.33470684 -0.45239806 -0.034431923
-0.08436235 0.24488035 0.34389883 -0.2922153 0.2705996 -0.28997523 0.09667055 -0.1452161
0.41000664 0.4670326 -0.31654277 0.4769522 -0.36064044 0.39393905 0.432713 -0.21911803
-0.1624139 0.23286745 -0.4755758 -0.24554095 0.414922 -0.11836025 -0.11442136 0.22123876
-0.39591044 -0.34071487 -0.3846405 0.23119208 0.24556686 -0.020394308 0.48361748 -0.38475725
-0.2667866 -0.3607905 -0.47721174 -0.22953783 0.13401785 0.46106943 0.38790268 0.48997447
0.47330648 0.010815851 -0.47218123 0.34719735 -0.17734991 -0.30334434 -0.4908206 -0.36288202
0.39846402 -0.14560626 -0.020072144 0.3027698 0.07588248 0.42194974 0.11492687 -0.105037004
-0.27457687 -0.41976926 0.1769889 -0.4271742 -0.21356875 -0.29417604 -0.38180304 0.0018279953
0.05970685 0.18381591 -0.47567698 -0.08160595 0.0082086 -0.115118876 -0.34857008 -0.27959046
0.24162751 0.1559953 -0.18225834 -0.20893186 -0.28151292 -0.13679844 -0.19976799 0.07689245
-0.24964386 -0.06635035 -0.3528945 0.208097 -0.18135594 0.1813392 0.0714825 -0.26123792
0.04174386 -0.22360913 -0.29673257 0.17923743 -0.3465019 -0.4526897 -0.2598904 -0.33682558
0.0651044 0.1365113 0.0020089392 -0.13006741 0.17438374 0.11373865 -0.21476643 0.26844704
-0.3859587 0.27930802 0.20111886 0.13096868 -0.22476324 -0.39884412 -0.25878572 -0.0684451

weight f4 [256, 128]
00000000: 31df ea3c 2d22 4f3d 0c03 583c fbd9 643c
00000010: 421f abbd f362 60bd 9f71 6fbd a4d4 233a
00000020: 67f6 5a3d bae2 cd3d 0d66 3cbd e975 99bd
00000030: 4d6a a53d 6f47 dabc 8fe2 4cbc 34f9 f83c
00000040: 5687 d23d fc1d ff3b dffe 88bd 2ff2 0f3d
00000050: 5be6 5b3d 4996 2cbd d7be 3b3d 98b3 dd3d
00000060: 89f7 c1ba 13c7 9a3d f825 a6bd fab8 243d
00000070: f9f8 713b 77f4 98bc bc31 153d e7e8 c8bb
00000080: 88fa 533d b46b c33c 2673 163d 17da 0d3c
00000090: 4a67 633d 2e6f a5bd 8101 9f3c 85f8 89bd
000000a0: 8c80 d2bc 929e 5cbd d8a0 13bc 1ef5 0a3e
000000b0: 64e5 83bc d8d4 8d3d 7a6d 193d e64f a9bc
000000c0: 531b fe3c 6a3c 78bc b24f a13d da61 04bd
000000d0: 9abf 143d bf63 aa3c 9ad6 9bbd 3d19 a4bc
000000e0: fb03 903d d934 93bd 9c89 5e3d 5024 b2bd
000000f0: 7cd9 033d 5ea1 b93d 917c a2bd 5d35 f0bc
00000100: efb9 35bd 478d a83d 6433 42bd 3d7f e03b
00000110: 0dd1 8d3d 3985 ffbc 4379 8d3c 41f6 55bd
00000120: c413 fa3c 9387 c7bc 4b9f fb3c 781f a7bd
00000130: b075 6abd 0095 113d 1dca 85bc 96d5 e33c
00000140: f77f 353c 48e6 c53d 04e0 ab3c 7dbf ac3d
00000150: 3d18 8b3d b17a 4b3d 22f0 333d 2ff1 06bd
00000160: db2e 453d 562d 6d3d 3960 963d 9a8a 593c
00000170: 8ac1 89bc 5083 423d e596 13bd 8436 103d
00000180: d471 a6bd 3b12 043d cb14 f1bc a332 19ba
00000190: 5a53 4ebd 419d 3d3c a3f7 35bd 5ada efbc
000001a0: b76a 22bd 22c7 043d 39d4 db3d 371d 6b3d
000001b0: 1776 ca3d 1a25 37bd 9b78 633c aa1a 3c3d
000001c0: 6cce de3d 3816 053d f303 e8bc 3270 903d
000001d0: 0ed3 023e 52b3 80bd 573a 2bbd 82f3 0bbc
000001e0: 01b1 803d 4176 e2bc fecd fabc 6f14 ac3d
000001f0: 0ec5 cfbc 084a fb3c 619b afbd f572 7d3d
00000200: 1836 88bc 1b42 b0bd 8e64 8fbd 8bf8 09bc
00000210: 65eb 4dbd 3bf7 0e3c 6abc 313d cda0 53bd
00000220: c87c dc3c c2ff 67bd abcb 16bd aab0 01bd
00000230: 6da7 f2bc 1eb0 80bd 7bb4 58bd 18ae e93c
00000240: b184 60ba 2700 1abd db99 3b3d c49e 94bd
00000250: dc72 bdbd ab9f 7ebd 2d23 b6bb 0025 6fbd
00000260: 3779 a7bc 066d 28bd 9182 493d 8d29 8cbc
00000270: 786a f3bc 07bb 6dbd 7a79 93bd aa41 b8bc
00000280: bca2 8ebd d856 a83d 301b 113d 0c87 e83c
00000290: 51fe 413d 2501 96bd ee03 91bd 1f8c 1dbd
000002a0: 6071 2d3d 059f ea3c bc75 2cbc afd6 4c3d
000002b0: e697 3bbd cc75 80bd 9a7e 86bd 97f6 a13d
000002c0: 4302 94bd 4086 edba 8d36 973d 49f4 b03d
000002d0: 6b35 87bc e820 97bd bd74 4fbd 44ab 7b3d
000002e0: 71d2 08bd caf9 23bd a640 7cbd 7e61 4e3d
000002f0: ae2c 3a3d 5e36 433d ebb6 e43c 8847 4f3c
00000300: d46a 84bd 6e7c 163d 80ef d9bc dbc8 623c
00000310: 8d60 693d bfff 933d 8de2 3a3d 8633 3cbd
00000320: 68e0 00bc 479e 8e3d 8253 c73c d2d3 573d
00000330: a006 27bc a643 abbd 3f47 32bd c3c9 95bd
00000340: 71a5 0bbd 7d7d 823c b0e9 16bd 936f 9a3d
00000350: a295 97bd 650d bf3d 17c0 60bd 5066 e8bc
00000360: 85d7 6abd dadc 89bd 4a37 e8bc ea1f 0ebd
00000370: 233a 953d 6ca6 c53b 3738 5d3d 6799 50bc
00000380: aa3a 4c3d c51d 853d a3cf 773d 2be1 f93b
00000390: ec22 88bd 4391 3f3d 35cd ac3c 4987 b6bc
000003a0: df0e 26bd ebf2 383d 45b4 673d a586 873d
000003b0: 78fa 503c 64c3 c0bc c69e a23c 728e 623d
000003c0: 7694 92bd 4986 593d ec19 9dbd b511 fe3c
000003d0: 7df8 9e3d e403 b93c 44a1 263d 18f9 2d3b
000003e0: 91f7 a23d ead5 f2bc b2cf 9b3d 74c1 1cbd
000003f0: 407a 1cbb 0051 593b ad15 973d aca4 74bd
0.02867088 0.050569702 0.01318432 0.013967986 -0.08355571 -0.054781865 -0.058457967 0.00062496425
0.053457644 0.1005301 -0.04599576 -0.07493193 0.08076916 -0.02664539 -0.012505188 0.030392267
0.102797195 0.007785557 -0.06689238 0.035143074 0.05368648 -0.04213551 0.045836296 0.108252704
-0.0014798503 0.07557502 -0.08112711 0.04021547 0.003692208 -0.018671257 0.036424384 -0.0061312797
0.051752597 0.023855068 0.036730908 0.008657954 0.055518426 -0.080778465 0.019409897 -0.067368545
-0.025696062 -0.053862162 -0.009010516 0.13570067 -0.016100593 0.06925362 0.03745792 -0.020667981
0.031018889 -0.015151123 0.07876529 -0.03231988 0.036315538 0.020799516 -0.076092914 -0.020031566
0.07032009 -0.07187814 0.054330453 -0.08698332 0.03218983 0.090639815 -0.079339154 -0.02932232
-0.044366773 0.082300715 -0.04741229 0.0068511055 0.06924639 -0.031191455 0.017269736 -0.0522368
0.030527003 -0.024356639 0.030715605 -0.08160299 -0.05724114 0.035542488 -0.016331727 0.027811807
0.0110778725 0.09663063 0.020980842 0.08434961 0.067917325 0.049677555 0.04393018 -0.032944854
0.048140388 0.057904564 0.07342572 0.013277674 -0.01681592 0.04748851 -0.036032576 0.03520824
-0.0812718 0.03224395 -0.02942886 -0.0005844032 -0.05037246 0.011573137 -0.044425618 -0.029278923
-0.039652552 0.03241647 0.10733838 0.05740091 0.09885805 -0.044713117 0.013883735 0.045923866
0.108792156 0.032491893 -0.028322196 0.070526496 0.12775823 -0.06284203 -0.041803684 -0.0085419435
0.06283761 -0.027644278 -0.030615803 0.08402335 -0.025362518 0.03067495 -0.08574558 0.06187721
-0.016627356 -0.086063586 -0.07001601 -0.008421074 -0.050273318 0.0087259365 0.043392576 -0.051667023
0.02691497 -0.056640394 -0.036815327 -0.03166262 -0.02962085 -0.06283592 -0.052906495 0.028525397
-0.00085646944 -0.0375978 0.045801025 -0.07256845 -0.09250423 -0.06216399 -0.0055583925 -0.058384895
-0.020443542 -0.041119598 0.049196783 -0.017109657 -0.029713854 -0.05803969 -0.07200904 -0.022492249
-0.06964633 0.08219689 0.03542632 0.028384708 0.047361676 -0.07324437 -0.07080828 -0.038463708
0.04234445 0.02864028 -0.010526117 0.050009426 -0.04579916 -0.06272468 -0.06567116 0.079083614
-0.07226994 -0.0018121675 0.073834516 0.08640344 -0.016504964 -0.07379323 -0.05064844 0.06144263
-0.033403818 -0.04003314 -0.06158509 0.050385945 0.045452766 0.04765927 0.027919253 0.012651332
-0.06465688 0.03673976 -0.02660346 0.013841833 0.056976844 0.07226514 0.045626212 -0.045947574
-0.007866003 0.06963783 0.024331812 0.052692242 -0.010194451 -0.08362512 -0.043524977 -0.073138736
-0.034093324 0.015928978 -0.036843956 0.07540812 -0.07401587 0.09328727 -0.05487069 -0.028369099
-0.05733444 -0.06731577 -0.028346676 -0.034698404 0.07286479 0.006031802 0.05400869 -0.0127318865
0.049860634 0.06499819 0.060500752 0.007625719 -0.06647286 0.04676939 0.021093944 -0.022281306
-0.040541526 0.04515354 0.056568403 0.06617478 0.012755029 -0.02353067 0.0198511 0.055311628
-0.07157223 0.05310658 -0.0767096 0.031014303 0.07762239 0.022584863 0.04068114 0.0026546177
0.07957376 -0.029643018 0.07607974 -0.03827043 -0.0023876578 0.0033159852 0.07377181 -0.059727356

bias f4 [256]
00000000: bf8e 573d afb8 0ebd 14dd 193d cfdb 9e3d
00000010: d088 b23c 4fdc 3e3d b8ba 2d3c c07a c4bb
00000020: 9ef7 72bd adfb 993d df29 ecbc 37be cabc
00000030: 5575 1d3c d9d3 933c e799 6ebd c592 85bd
00000040: 6162 39bc c2f4 553c 02f9 33bd 17b2 883d
00000050: a37c 81bd ad74 24bd 451d b43d a464 e53d
00000060: 9ab2 52bb 605e a4bd 79f3 8c3d 80e7 353d
00000070: 701f a3bd a283 9cbc 65b4 6cbd 2091 73bd
00000080: 5555 c3bd 865f cb3c e0dd b83d 8b92 a23d
00000090: d23d 8e3c c211 a23d 2878 37bd d60f a43c
000000a0: 9891 773d 857a 533d 6c26 acbd 6a9c 6c3c
000000b0: b3b3 ecbc 3ee7 e8b9 9111 20bb fa27 95bd
000000c0: 879d 553d cda6 bb3d d1d4 b6bc 5a0e 23bd
000000d0: fb60 a53c 2bf9 1cbd afbf 373d 8ff1 3f3d
000000e0: cb3f 17bd cfca c5bd ae7a c43d 15bd c53c
000000f0: 0413 4d3c 4e95 823c db8d b13d 4eaa 703b
00000100: 2db9 2fbb 7eb0 bcbd 65e7 a03d 0bdc f23c
00000110: f5d5 ed39 20a0 c5bd c02e adbd dc7d dbba
00000120: 2fbf f0bc f523 65bd 9421 ae3d 137b 5cbd
00000130: abb5 363d b5e5 ed3b ea1a 993d f0fb 91bc
00000140: a3ef 84bd 345b a53c d96f 15bd d646 943c
00000150: dad4 c6bd 6f1c 6fbd b58c b53d ce01 36bd
00000160: 50e0 a53d 0b9e b0bd b967 1cbd d0dd a5bd
00000170: 679f 463d dbcd 7ebb 7c9f 843c c838 f73a
00000180: 0c18 c6bc 3149 703d ad50 b63c d616 5bbd
00000190: 830f d23c 9a31 a7bd 6720 a13d 9c21 313d
000001a0: 98b6 913d c68e 873d 0d0d 50bd 11d6 39bd
000001b0: 35e4 03bc d5d8 e83c 73a3 a43c 3e26 e33a
000001c0: 0950 7bbd 9e81 9bbd 7eb1 523d b466 36bd
000001d0: dfa6 373d 54a6 0a3d 9c79 c03d cc29 19bd
000001e0: dab4 8fbd 9c1a 913d be71 79bd a428 d43c
000001f0: ab9b 043c 4abf 5bbd b9a8 9f3d 8c61 70bc
00000200: eb46 06bd f116 063c 6cc6 9f3d 3a55 a13d
00000210: 4ead 6a3d 6421 7e3d 261f 3bbd 21af 733b
00000220: 5a10 b83c 3fa2 a83c 7f04 82bd b861 cf38
00000230: 56d5 0bbd 1783 5abb e67f bd3d b2ca 683d
00000240: de55 87bd ff8d 94bd 6ea1 9f3d 6617 2f3d
00000250: 9b5f 5bbb 0cef c8bc a2b2 953d 2c97 893c
00000260: 33c7 723d a791 6e3c a842 5a3d ebb4 ba3d
00000270: 9355 5f3d 587c 8b3d bf4d df3d af51 8e3c
00000280: 34a3 afbd 4ea5 673d 5419 8bbd 5815 85bd
00000290: bcba 0c3d 46bd 173d aaa1 503c 14e4 57bd
000002a0: 47d1 93bd d031 10bd 2a53 73bb 085f 0ebd
000002b0: 17f5 a63d 364c ba3d 711e bfbd 8ffb 54bc
000002c0: d6df c7bd 78c9 e9bc d576 303d a6f1 2a3d
000002d0: 62f2 853d ed98 96bd c5cc 8c3d 9f5e babd
000002e0: f7d0 febc b1a3 8c3d ffd5 17bd e2c3 2d3c
000002f0: 1d34 833c 980e 3cbd e23c 3bbd 4a1e d03c
00000300: 8f55 503c 8ef6 ea3b faab 36bd a189 753d
00000310: d6b8 743c 1350 5c3d 01d6 3abd cfce d83c
00000320: 3942 423d 66ba 773d 9ee2 1b3d acc2 e53c
00000330: 44de 213d 402d a53d 6d2f 273d 73c2 f2bc
00000340: d396 a33d 72f6 afbd 5a98 3dbc 7b89 923d
00000350: 0b19 c83c 5856 a3bd f7ce 83bd f14f 403d
00000360: fa76 9a3d 6857 78bd 782b 8f3d 320f 69bd
00000370: 5dfb 393d 44c8 c33c 21e8 2dbd 904f 7ebd
00000380: 6eeb ae3d 32f1 253b e06f a8bd 0bd6 68bd
00000390: 2450 0cbd ab73 a63c 44a5 c03d 7562 7d3d
000003a0: e8dd 853d ec91 0fbb 7c98 c0bd 7d1d 57bc
000003b0: f59f b33d bf3e 83bd 844e 933d 73a2 16bd
000003c0: a497 d5bb 53cc 753d a3be 98bd 9dcf dd3c
000003d0: 0241 f4ba eec5 7bbd 0e15 253d a067 39bd
000003e0: 9b96 023d ddab 523d 8de5 373c fa5c 5abd
000003f0: 8f00 85bd ab6c 87bd 8664 16bd ceb1 d73c
0.052626368 -0.034844097 0.037564352 0.07756769 0.021793753 0.04659682 0.010603599 -0.0059960783
-0.059318177 0.075187065 -0.02882856 -0.024748905 0.009610494 0.018045353 -0.05825224 -0.06522135
-0.011314959 0.013058843 -0.043938644 0.06674593 -0.06322601 -0.040150333 0.08794645 0.11200836
-0.0032149912 -0.08025813 0.06882376 0.04441023 -0.079649806 -0.019105736 -0.057789225 -0.059464574
-0.0953776 0.024825823 0.09026694 0.07938107 0.017363463 0.07913543 -0.044792324 0.020027082
0.060441583 0.051630516 -0.08405766 0.014441589 -0.028894281 -0.00044422777 -0.0024424533 -0.072830155
0.052152183 0.09162674 -0.022318276 -0.03980861 0.020187845 -0.038323563 0.044860538 0.046861228
-0.036926072 -0.09657823 0.09593712 0.024138013 0.012516741 0.015940335 0.08669635 0.0036722603
-0.0026813254 -0.09213351 0.07856635 0.02964594 0.00045363573 -0.09649682 -0.084561825 -0.0016745883
-0.029388038 -0.055942494 0.08502498 -0.05382831 0.044606846 0.007260049 0.074758366 -0.017820328
-0.064910196 0.02018509 -0.03648362 0.018100183 -0.09708567 -0.058376726 0.08864728 -0.044435315
0.08099425 -0.08623894 -0.038184855 -0.08098948 0.04849186 -0.0038880024 0.01618933 0.0018861527
-0.024181388 0.05866355 0.022255266 -0.053488575 0.025642162 -0.081637576 0.078675084 0.043244943
0.07114905 0.06619029 -0.050793696 -0.045370165 -0.008050014 0.028423706 0.02009747 0.0017330123
-0.061355624 -0.07593082 0.0514388 -0.04453154 0.044836875 0.03385003 0.09398195 -0.037393376
-0.070169166 0.070851535 -0.06089949 0.025898285 0.008093755 -0.053649224 0.07795853 -0.0146716945
-0.032782476 0.008184181 0.07801518 0.07877584 0.057294182 0.062043563 -0.045684002 0.0037183242
0.022468735 0.020585177 -0.06348514 9.888731e-05 -0.034139 -0.0033342296 0.0925291 0.05683393
-0.06608175 -0.07253646 0.07794462 0.042746924 -0.0033473733 -0.024528049 0.07309462 0.016795717
0.059272002 0.014561093 0.053286225 0.091165386 0.05452497 0.06810826 0.10903501 0.017372934
-0.085760504 0.05655413 -0.0679194 -0.064982116 0.03435777 0.03704574 0.012733856 -0.052707747
-0.07217651 -0.035203755 -0.0037128427 -0.034758598 0.08152216 0.09096567 -0.09331978 -0.012999429
-0.0975949 -0.02853845 0.043082077 0.04173436 0.065403715 -0.07353387 0.06874994 -0.09100079
-0.031105502 0.06867159 -0.037069317 0.010605784 0.01601606 -0.045912355 -0.04571236 0.025405068
0.012715711 0.007170505 -0.044597603 0.059945706 0.014936646 0.053787302 -0.045614246 0.026465802
0.047426436 0.060480498 0.038057916 0.028046928 0.03951861 0.080652714 0.040816713 -0.029633736
0.07987752 -0.085919276 -0.011571968 0.071551286 0.024426004 -0.07975453 -0.0643596 0.046951238
0.07542224 -0.060630232 0.06990713 -0.056899257 0.045405734 0.023899205 -0.042457704 -0.062087595
0.085409984 0.0025320766 -0.082244635 -0.056844752 -0.034256116 0.020318827 0.09406522 0.061861474
0.06536466 -0.0021907045 -0.09404084 -0.013129589 0.08770744 -0.06408452 0.0719271 -0.036776017
-0.006518321 0.060009312 -0.07458236 0.027076537 -0.0018635096 -0.061468057 0.040303282 -0.04526484
0.03188191 0.051433433 0.011224163 -0.053311326 -0.06494247 -0.06612524 -0.03671696 0.026329901

weight f4 [2, 256]
00000000: 09cf a2bd 9f73 a4bb 9529 4fbd 8add 5abd
00000010: 35ea 6f3d 09ee e5bc 5233 24bd 6d53 873d
00000020: 95c6 cabd ffdf ab3d dd3a aa3c 755c a9bc
00000030: d398 c1bc 91b9 533d 1c73 2c3d f6ce 24bd
00000040: cb18 403d 4689 06bc cd83 4b3d 6ba7 853b
00000050: 4498 6a3b a265 4abd faa9 e6bc 53d4 91bd
00000060: a70e c8bd 4ee0 843d 5131 973c b6b2 1bbd
00000070: c609 6c3d d996 33bd 9601 42bd 60fd b6bb
00000080: 8357 123d fa0d 1c3d 7f56 883d c80d c53a
00000090: 0f13 a53d 36e0 d8bb ce54 ba3c 86db 58bc
000000a0: d084 c4bb 1ef3 2a3d b2ec b0bc a15f 57bd
000000b0: eda0 003c 4c55 97bc caf4 8c3c 6c5c 4abc
000000c0: e76e 6e3d 4bcb b9bd bb2c 61bd 0dfb 95bd
000000d0: 0ba1 7bbb 649c 9f3d f4df 41bc 8972 b13d
000000e0: f3f0 e0bb 9b6b 233d 14f9 a3bc 1d2b 053d
000000f0: d8ad 8b3d 1d62 62bd 7a64 95bd 09b0 28bd
00000100: ccc3 273d be02 483d aa27 36bd c8ca 4fbd
00000110: 6942 fe3c 1208 d1bb 32ed 6e3c 6dad 773d
00000120: 9d62 6fbd dfb0 e4bc 7a52 a8bc c46e 3f3d
00000130: 2f9e ccbd 69db 2f3d 8649 c43c e882 79bd
00000140: 03ee 13bd 621c b6bd 13f2 9fbd 5f54 1a3d
00000150: ec9a 14bd 1d17 7cbc cb4a b9bd b182 79bb
00000160: 3cb6 bdbc aa93 7bbc 708b a8bb d8d5 533c
00000170: 134a 503d 539d 833c 0054 c638 f647 e63c
00000180: 43fa 013d e877 8cbd 3181 933c 1535 ab3d
00000190: 6e28 143d ec57 1c3d b7e9 8c3d ff0d 253d
000001a0: b1a3 0dbd ef4e 19bd 0bb7 a5bc f618 363d
000001b0: da54 adba fe8d 94bd aef1 113d e123 bcbc
000001c0: 0c80 a1bc 6246 d2bc 9dd5 963d 4f72 a43c
000001d0: 4127 2abc 0883 4f3d a263 b7bd ca31 a03d
000001e0: 80c1 21bc 3bf5 4bbd 63e9 0cbd d781 91bc
000001f0: cdbb b13c 7cef 8cbb dab5 1a3d b527 03bd
00000200: 4fb0 2dbd 769f 06bd c4f7 fe3c 8e79 00bd
00000210: db32 b93c 5b51 f03c aa80 7d3d 5ec3 a2bc
00000220: df88 423d 7680 eebb 3b86 353d 779e 093c
00000230: 97bb 5ebd e120 9abd ed62 66bd d433 92bc
00000240: 66fa c73c 38fd af3d bc42 f83c 7375 e8bb
00000250: 00cc 87bd 5fe1 f53c ac80 4d3d 3a0d 9e3d
00000260: 11be 18bc ac78 823d 7e37 97bd f9a5 a2bd
00000270: 7230 813d 602f 903d 730e b4bd a398 573d
00000280: 60b5 293b 2e5a 16bd d8d9 b03c 495e 833c
00000290: decb 6dbb 0233 2b3d b3a1 ae3d ec22 55bd
000002a0: 1445 6bbd 2eb6 64bd b632 07bd 2c2c afba
000002b0: 1b93 393d 56c5 2cbd dce6 d43b 053a fbbc
000002c0: cf27 003d 9e66 8dbd f6a4 6f3c da95 8ebd
000002d0: 839c 3abc 5f75 e6bb f1d8 ebbb cdce e7b9
000002e0: 8809 33bd 0a4f 1abd 8b3a 50bc 0ef9 293d
000002f0: f843 053d b09a 3ebd 265d 1e3d 474e 5ebd
00000300: 1ff4 9c3d 0fc0 cdbc 0004 dbbb 78ec e93c
00000310: 58b7 49bc c2a4 80bd 94b8 babd 34bc 88ba
00000320: a5bd 55bd 37cc 663d a290 80bd 7326 153d
00000330: 00a3 0dbd 59e1 80bb 9fdc 8d3d cb45 a73d
00000340: 0dc8 37bd 3cb5 9a3c 47f5 173d f9de d33b
00000350: 7bee 89bd 10ab e6bb ba52 fa3c a0f1 1e3d
00000360: b072 1b3d 20a8 8a3d 5091 443d aa3e 933d
00000370: bcf6 ad3c a7b8 6b3d 1648 30bd 28b9 f0bc
00000380: de8b d0bb e822 8abd bf4d 8ebd d54b 8c3c
00000390: 6989 32bd a33a aabd 897b 36bd 057e 6dbd
000003a0: 06d5 b2bd a07f 7b3d 2fcc eb3b dbeb 1fbd
000003b0: ac0c 4b3d 6221 56bd 3da8 a03c 4622 813d
000003c0: 66d4 04bd d4c4 ac3c c7ff 35bc 87c6 693d
000003d0: bce8 b73c 689a 2f3d 58f2 c3bc d2a6 9b3d
000003e0: 1a1b 97bd 03ef fa3c 51f7 1b3d 2bad f2bc
000003f0: fb51 3dbd 5baa babd c87e 4c3d c97f 31bd
-0.07949645 -0.005018666 -0.050576765 -0.053433932 0.058572967 -0.028067606 -0.040088005 0.06607709
-0.09901158 0.08392333 0.020780021 -0.02067397 -0.023632443 0.05169064 0.042101964 -0.040236436
0.046898644 -0.0082114395 0.049686242 0.0040787957 0.0035796324 -0.04941333 -0.028157223 -0.07120576
-0.0976842 0.06488095 0.018456133 -0.03801223 0.05762651 -0.04384503 -0.047364794 -0.005584404
0.03572799 0.038099267 0.06657123 0.0015034014 0.08060276 -0.006618525 0.022745516 -0.013235932
-0.005997278 0.04173576 -0.02159724 -0.052581433 0.007850868 -0.01847329 0.017206568 -0.012351137
0.058211233 -0.09071978 -0.0549743 -0.07323275 -0.003839555 0.07793501 -0.01183318 0.08664424
-0.006864661 0.039897542 -0.02001623 0.03251182 0.068202674 -0.05526935 -0.07294555 -0.041183505
0.04095821 0.04883074 -0.04447142 -0.050730497 0.031037526 -0.006379136 0.014582919 0.060468126
-0.058443654 -0.02791637 -0.02054714 0.046736494 -0.099911086 0.042933855 0.02396084 -0.060915858
-0.036115658 -0.08892132 -0.07809844 0.03767812 -0.036280558 -0.01538637 -0.09047469 -0.0038072283
-0.023158185 -0.01535503 -0.0051435754 0.012929402 0.050851893 0.016066229 9.457022e-05 0.028110486
0.03173281 -0.06858808 0.01800594 0.08359734 0.03617137 0.038169786 0.06880515 0.04029655
-0.034579936 -0.037428793 -0.020228883 0.0444574 -0.001322414 -0.07253645 0.035630874 -0.022966327
-0.019714378 -0.025668327 0.07364962 0.020074038 -0.010385335 0.05066207 -0.0895455 0.078219965
-0.009872794 -0.049794417 -0.034402262 -0.017762108 0.021695996 -0.0043010097 0.037771083 -0.03202029
-0.04240447 -0.032866918 0.031124003 -0.031365924 0.022607258 0.029335668 0.06189028 -0.019868549
0.04749381 -0.0072784973 0.044317465 0.008399597 -0.05437812 -0.075258024 -0.056246687 -0.01784698
0.024411391 0.085932195 0.030305259 -0.007094079 -0.06630707 0.030014692 0.05017154 0.077173665
-0.009322659 0.063706726 -0.07383631 -0.07941813 0.06308068 0.07040286 -0.087918185 0.0526358
0.0025895461 -0.036707096 0.021588251 0.01603617 -0.0036284844 0.04179669 0.085269354 -0.052035257
-0.057438925 -0.055837803 -0.033007346 -0.0013364605 0.045306306 -0.04218038 0.006497247 -0.030667314
0.031287964 -0.06904338 0.014626732 -0.06962176 -0.011389854 -0.0070330347 -0.0071974923 -0.00044213832
-0.04371026 -0.037673034 -0.01270927 0.041497283 0.032535523 -0.04653424 0.038663052 -0.05427387
0.0766375 -0.025115995 -0.0066838264 0.02855514 -0.012311779 -0.06281425 -0.09117237 -0.0010432065
-0.052182812 0.0563471 -0.062775865 0.03641362 -0.034579277 -0.0039331135 0.06926846 0.08167609
-0.044868518 0.018885247 0.03709915 0.0064657894 -0.0673494 -0.007039435 0.030557025 0.03880465
0.03795117 0.067703485 0.047990143 0.071896866 0.021235816 0.057549145 -0.043037497 -0.029385164
-0.0063643297 -0.06744939 -0.06948423 0.017126003 -0.043588076 -0.08311965 -0.044551406 -0.05798151
-0.08732037 0.06140101 0.0071959714 -0.03904329 0.04957263 -0.05227793 0.019611472 0.06305365
-0.03242912 0.021089949 -0.011108345 0.057074096 0.022449844 0.042871863 -0.02391927 0.07600178
-0.07378216 0.030631548 0.038077656 -0.029623589 -0.04622076 -0.09114524 0.049925596 -0.043334756

bias f4 [2]
00000000: 0f3b 19bd d106 423d
-0.03740984 0.047369782
