model/critic.pkl (torch_old, 139678 bytes, 5 tensors)

weight f4 [128, 4]
000000 62 0a 20 be 38 a1 9b 3e 57 da 04 3e b1 13 4b 3e
       -0.1562896 0.30396438 0.12973915 0.1983173
000010 ed 1e 92 3e 3a e5 a5 be 05 36 c6 bc c2 b7 6e be
       0.2853922 -0.32401448 -0.02419568 -0.23312286
000020 51 0c cf 3d fa 69 7c be 1c 8a 29 3d a9 83 1d 3e
       0.10109771 -0.24649802 0.041391477 0.15382256
000030 97 d1 6a 3e c0 8b af 3e e2 7c ad be d9 8d a9 3e
       0.22931515 0.34286308 -0.3388434 0.33116034
000040 ef d9 04 3e ae 6c 5a 3e 3b a5 82 3e 6e af 27 bd
       0.1297376 0.2133052 0.25516686 -0.040938787
000050 f4 a1 44 3e 02 ca be be 0f fc 81 be 3e c2 a1 be
       0.19202405 -0.37263495 -0.25387618 -0.31593508
000060 ca 12 e0 be cb dd 60 3e 65 3e 9c be ba 1e a7 bd
       -0.43764335 0.21959607 -0.30516353 -0.081601575
000070 1a 5f 95 be db a8 08 3e ec 8b 8c be e1 65 f8 3c
       -0.2917412 0.13345663 -0.27450502 0.030322017
000080 5c dd c9 be 7c ca d3 3e 5c 35 e3 be 2d 96 bd 3e
       -0.39426696 0.4136542 -0.44376647 0.37028638
000090 44 3e 0d be 64 cc ff 3e ce 5b d3 3e f5 a5 d8 be
       -0.13793284 0.49960625 0.4128098 -0.42314115
0000a0 17 69 93 3d 96 8b c2 3e 23 bf b7 3d 20 6a ab be
       0.07197779 0.3799712 0.08972003 -0.33479404
0000b0 14 65 01 3d 2b 64 9b be 76 b3 0e 3e 6e 06 47 be
       0.031590536 -0.3034986 0.13935646 -0.19436046
0000c0 12 2e 54 be 4e 9d fe 3e c9 94 dd bd 01 82 07 bf
       -0.207207 0.4972939 -0.10819394 -0.52932745
0000d0 c0 79 91 3d ba 05 32 3e 86 3c 34 be c1 7f b6 be
       0.071033 0.17384997 -0.17601213 -0.35644343
0000e0 e5 1e be be 86 e1 8c 3e 9a 45 98 3e f6 ac ca 3d
       -0.37132946 0.2751581 0.29740602 0.09896271
0000f0 3d c6 92 be 51 3c 20 be 3a 39 d9 3d f5 20 0b 3f
       -0.2866687 -0.15648009 0.10606618 0.54347163
000100 8c 1e 5e 3e fa 4c 68 be b2 f3 fc 3d 7b b3 8b 3e
       0.2169134 -0.22685614 0.12351169 0.2728537
000110 3c 6b 4b bd 20 d5 97 3e 90 d2 4c 3e 55 5e aa 3e
       -0.049662814 0.2965479 0.20002198 0.33275095
000120 84 d5 4a be b5 ce 11 bf 33 c4 41 3e 7d 0a f1 3e
       -0.19808012 -0.56956035 0.189225 0.47078314
000130 1e a2 a9 3e 7f 83 f2 3e 59 b4 96 3e 96 a3 bc 3d
       0.33131498 0.4736595 0.2943447 0.09210889
000140 86 7e 44 3e 06 9c 00 bf 0e c2 80 3d 3f 6c dc be
       0.1918889 -0.5023807 0.06287013 -0.43051335
000150 84 6e d8 be 35 ac 93 3e 36 f3 f6 3e 61 7a b1 3e
       -0.42271817 0.2884232 0.4823243 0.3466368
000160 07 3b 7d 3e bc 89 0e be c4 55 fa 3e 1f 65 fa 3c
       0.24729548 -0.13919729 0.4889356 0.030565796
000170 09 49 e9 bb ec f1 34 3d ea 8c ff bc 76 3e 99 3d
       -0.007119302 0.044176027 -0.031195123 0.074826166
000180 d5 3e 45 3e cd 0b ce 3e fa 99 67 bd 22 d6 d4 be
       0.1926225 0.40243378 -0.056543328 -0.4156962
000190 ec 95 f3 bd b4 3e 87 be b3 ac a9 be a3 0f 48 3e
       -0.1189383 -0.26415026 -0.33139572 0.19537215
0001a0 65 6e 1e be d2 97 bd 3e 10 c8 87 3e 1b 84 6e 3e
       -0.154718 0.37029892 0.26519823 0.23292582
0001b0 28 e0 07 bd 8e 98 d9 be 5b 94 c8 be 76 c1 f3 3e
       -0.033172756 -0.42499202 -0.39175686 0.47608536
0001c0 93 32 88 be a1 10 e0 3e 95 85 b7 3e 98 ea d5 3e
       -0.26601085 0.43762687 0.35844103 0.41780543
0001d0 e8 d2 5b be 26 84 b8 bd e4 94 03 3f 49 f0 9c be
       -0.21467173 -0.0900958 0.51399064 -0.30652073
0001e0 dd 5a ae 3d 11 2c 00 3e 05 f0 4c 3e 62 2a 11 bf
       0.085134245 0.1251681 0.20013435 -0.56705296
0001f0 55 98 aa 3e 1a 79 b8 3d 79 1d ac 3e 09 f7 dc 3e
       0.33319345 0.09007473 0.33616236 0.43157223
000200 b4 d9 8a be bb eb 95 bc bd f3 64 3e bf 43 be be
       -0.2711922 -0.018300882 0.22358604 -0.3716106
000210 84 05 34 be f4 60 e0 3e a6 b5 48 bd 0a 1c cb be
       -0.17580229 0.4382397 -0.04900136 -0.3966983
000220 2d 0a 6b be c5 5d b7 3e 92 03 10 be 4b b3 67 be
       -0.229531 0.35813728 -0.14063862 -0.22626989
000230 8d 20 8a be 61 96 03 bf 00 57 ad 3d e9 8e 0f 3f
       -0.2697796 -0.51401335 0.084638596 0.5607744
000240 18 fa ec 3e 7e 04 1f be ba f4 a6 3e 3c cc 60 3e
       0.46284556 -0.15529057 0.32608587 0.21952909
000250 0e f0 4c be 7f 00 71 be b0 07 c0 be 71 e8 19 be
       -0.20013449 -0.23535345 -0.37505865 -0.15030076
000260 d2 e8 d7 3e c5 a8 85 be a8 07 dd 3e 2c 93 f6 3e
       0.42169815 -0.26105323 0.43169904 0.48159158
000270 02 12 89 3e f8 73 f6 3e 22 d7 bc 3e 2a 12 81 3e
       0.2677155 0.48135352 0.36882883 0.2520917
000280 c8 57 01 3e 5e 7b db 3c 55 fa fc 3d f3 54 ab be
       0.12631142 0.026792224 0.123524345 -0.3346325
000290 99 8e 9f 3e 59 c1 69 be 00 05 f4 3e 6f 76 20 be
       0.3116348 -0.22827663 0.47660065 -0.15670179
0002a0 c9 0b c2 be 03 e1 82 3d b0 4d e6 bc 5b 13 81 be
       -0.37899616 0.06390574 -0.028113216 -0.2521008
0002b0 64 bb cc be 94 1f 7e 3e 5d 96 42 be ca d6 2e 3d
       -0.39986718 0.24816734 -0.19002672 0.042685308
0002c0 be ba d1 3e 59 33 7f 3e 7e 31 4b 3e 22 72 3c 3e
       0.40962785 0.24921931 0.19843099 0.18402913
0002d0 30 b4 d8 3e d0 2f 60 be 3e f0 ba 3d 8b 2b ad 3e
       0.42324972 -0.21893239 0.09127854 0.33822283
0002e0 34 b6 77 3e 60 0f 53 3e 25 dc 02 3e 28 a6 e0 be
       0.24190599 0.20611334 0.12779291 -0.43876767
0002f0 27 c1 8b 3e 33 96 c3 3e 56 b3 71 3e c7 07 f1 be
       0.272958 0.3820053 0.23603567 -0.47076246
000300 cd 98 35 bd ca 5d cc 3e 34 2d d5 be 77 ac 8e 3e
       -0.044335175 0.39915305 -0.4163605 0.27865955
000310 53 51 d2 3d 5e 64 f8 3e 74 9d 58 3e d5 0d a2 bd
       0.102694176 0.48514074 0.21153814 -0.079127945
000320 06 20 80 bd 56 45 aa be aa 60 b4 be 17 35 0c 3e
       -0.06256108 -0.33256024 -0.3523 0.13692127
000330 f3 26 34 be cd 5a 2e 3d 46 9e bc 3e f7 36 a5 3e
       -0.17592983 0.042567063 0.36839503 0.32268497
000340 71 65 de 3e d6 30 97 3e df 93 3c be a9 b1 dd be
       0.4343677 0.29529446 -0.18415783 -0.43299606
000350 9a 91 a6 3e fe cd c9 3c f7 0d ac 3e fa 6b 4d be
       0.3253296 0.024634358 0.33604404 -0.20060721
000360 ad 23 ca 3d 69 32 6e be 0b d2 ef be 0f ff 0e 3f
       0.09870086 -0.23261417 -0.46839938 0.5585794
000370 ae b1 9f be 6c 40 95 be c6 e1 f6 be b8 25 4c be
       -0.31190246 -0.29150712 -0.48219126 -0.19936264
000380 68 24 54 be 3e 27 66 3e e8 67 aa 3e ec 4d 22 3e
       -0.20717013 0.22475907 0.332824 0.15850037
000390 39 94 cb 3e 39 a7 b3 3e c5 fe 6f 3e dc a5 ef be
       0.39761522 0.35088518 0.2343703 -0.46806228
0003a0 b9 3e 8f be d2 aa e7 be d2 c9 c6 3e e4 e9 f3 3e
       -0.2797754 -0.45247513 0.38825852 0.47639382
0003b0 5a 66 c3 3d 7f 72 48 3e b6 54 5d 3e d2 6e d2 3e
       0.095410064 0.19574927 0.21614346 0.41100174
0003c0 ca b8 d3 be 57 1a bc 3e 6f db 8a 3e d4 a2 c0 be
       -0.4135192 0.36738846 0.2712054 -0.37624228
0003d0 e9 f4 94 3e 0c 1a 01 bf 37 0c cc be 7d a5 bb 3e
       0.29093102 -0.5043037 -0.3985307 0.36649695
0003e0 34 a1 85 be f5 4d d3 3e 71 40 91 3d 9b 76 89 3d
       -0.2609955 0.41270414 0.07092369 0.06712075
0003f0 76 c2 8d be 33 f5 09 3f 66 40 80 3e 2d 4b ea be
       -0.27687424 0.5388977 0.25049132 -0.4576048

bias f4 [128]
000000 e4 13 d8 3e a4 3d 88 3e ed a0 bd 3d a7 d6 11 3f
       0.42202675 0.26609528 0.0925921 0.5696816
000010 ce 7b 7d be 77 ce 57 3e e9 ac 9f 3e db c8 14 3f
       -0.24754259 0.21074854 0.31186607 0.5811898
000020 b1 d7 c4 3e d5 2f 81 be 2a 04 9a 3a bb 8a 95 bd
       0.3844581 -0.25231805 0.0011750509 -0.07301851
000030 a5 03 b7 be 8e ee 60 3e 4d 1f df be c7 6c d1 3e
       -0.35744968 0.21966001 -0.43578568 0.40903303
000040 d3 58 0c 3f 7b fd 14 be 9b 8d 13 3e dc bf df be
       0.54823035 -0.1454982 0.14409487 -0.43701065
000050 89 f6 f8 be 1b e1 2c be c6 00 0a 3f 92 62 05 be
       -0.4862559 -0.16882746 0.5390743 -0.13025883
000060 ea b8 d8 3d 69 9c 02 be 3b aa b4 3e 4b 4d 11 3f
       0.105821446 -0.12754978 0.35286126 0.56758565
000070 9c 7d aa be 45 47 7c bd 5b 0a cc 3d dc 57 11 3f
       -0.33298957 -0.061591405 0.09962913 0.5677469
000080 5c 8d b7 3c b2 10 f3 be 6d f3 56 3e da 1c c0 be
       0.022406273 -0.47473675 0.20991297 -0.37522012
000090 bb 3a 52 bd 14 8a b9 3e a9 1c ce be 3a d6 55 bd
       -0.05132554 0.36238158 -0.4025624 -0.052206255
0000a0 28 e4 f4 3e 31 5a 7e 3e 54 36 d7 3e ef 4e f1 3e
       0.4783032 0.24839093 0.42033637 0.47130534
0000b0 fe ad f2 3e 7b b5 14 be cd 2c ea be e6 91 82 3e
       0.4739837 -0.14522354 -0.45737305 0.25501937
0000c0 7e 97 41 3e 90 29 87 be a9 b2 f6 3d e6 64 13 3f
       0.18905446 -0.26398897 0.120457955 0.57575834
0000d0 cc 3a f4 3e e4 46 ff 3e 1d 62 aa be d3 70 ad bd
       0.47701108 0.49858773 -0.3327798 -0.08468785
0000e0 a0 7a 9d 3e 9b 47 f0 3e 0d c3 c4 3d 61 af b1 3e
       0.30757618 0.4692963 0.096075155 0.34704116
0000f0 ef 78 2d 3e 39 58 bf be e2 9a 72 3e f2 4f 3c be
       0.16940664 -0.37371996 0.23691896 -0.18389872
000100 7e 08 0a 3f e8 7f 9a 3e 39 e8 7f bc 6c 47 5a bd
       0.5391921 0.3017571 -0.015619331 -0.05329077
000110 6e 30 35 3e 73 b9 3f 3e 68 8f f2 3e 11 fe 04 3f
       0.17694256 0.18723087 0.47375035 0.51950175
000120 3a bf f7 bd 6c 3f 48 be 68 21 4b 3d 2f 41 78 be
       -0.120970204 -0.19555444 0.049592406 -0.24243616
000130 c7 b5 75 3e 65 3b ca 3e 81 30 81 be 9d 62 e4 be
       0.23995124 0.3949844 -0.25232318 -0.44606486
000140 44 9f 18 3f f9 a0 af 3e a9 57 4f 3e a2 1b 3a 3e
       0.5961802 0.343025 0.20248283 0.18174604
000150 f6 54 88 be b3 f9 5a be 1d c0 4e 3e 3c c7 52 3e
       -0.2662732 -0.21384315 0.20190473 0.20583814
000160 6b 21 1a 3d 8f b4 14 3e b9 04 aa be bf fd 3c 3e
       0.037629526 0.14522003 -0.33206728 0.18456171
000170 70 dc ce 3e 49 d7 9e be 06 b0 b0 3e 78 a4 71 3e
       0.40402555 -0.31023625 0.34509295 0.23597896
000180 63 b3 95 be 24 d3 57 3e 17 81 97 be 2a a6 b6 3e
       -0.29238424 0.21076638 -0.29590675 0.35673648
000190 2c 04 8e 3e fc a9 34 3d 1b ba 74 3e 1d e3 a1 bd
       0.27737558 0.044107422 0.23899119 -0.079046465
0001a0 18 5b 6f 3e d9 8c dc 3e 7b 39 10 3f f1 18 d2 3e
       0.23374593 0.43076208 0.5633771 0.41034654
0001b0 be 41 ea 3e 9c 2f 08 bb e0 8c 14 3f 11 97 b9 3e
       0.45753282 -0.002078033 0.5802746 0.36248067
0001c0 2f f8 dc 3e c3 99 91 3e 50 59 10 3f 12 05 33 3e
       0.431581 0.28437623 0.5638628 0.17482403
0001d0 ec ce d7 be 80 af 02 bd fc d7 79 3e 72 4f 11 3f
       -0.42150056 -0.03190565 0.24398798 0.5676185
0001e0 b4 6f c5 3e 00 58 aa be 5b 0c f2 3e fb d8 a4 3b
       0.38561785 -0.33270264 0.4727505 0.005030749
0001f0 cb 88 fe be d1 a5 03 3f b7 b7 b7 3e 89 25 02 3f
       -0.4971374 0.5142489 0.3588235 0.50838524

weight f4 [256, 128]
000000 de d1 a0 3d 26 d1 5d 3d 60 71 c5 3d 32 2c 3c 3e
       0.07852529 0.054154538 0.09640765 0.18376234
000010 29 23 0f bc 32 1a c8 3d 50 f7 bc 3d 63 1c a4 3d
       -0.00873641 0.09770621 0.092268586 0.08013227
000020 28 23 1f 3e 81 4e a9 3c f0 e6 1e bc a2 dd 99 bd
       0.15540755 0.020667316 -0.0096986145 -0.07512976
000030 1c 7d 3f bd 88 9f 28 3e 9c a4 92 bd 37 04 05 3e
       -0.046750173 0.16467106 -0.07160303 0.12989889
000040 16 a9 26 3e 57 3c 02 be 49 52 08 3e 10 0f 97 3b
       0.16275439 -0.1271833 0.1331264 0.00460995
000050 00 db 8a 3d 7e ba 8d bd e3 1d 8a 3d 41 ac c7 bb
       0.06780052 -0.06920336 0.06743982 -0.0060935323
000060 1b 0f 9a 3d 7e 6e 13 bd c7 0f a5 3d a7 20 2f 3e
       0.075224124 -0.035994045 0.0805965 0.171023
000070 55 c5 21 bd 56 f6 cd 3c 0a f2 1a 3e a7 ae 34 3e
       -0.03949483 0.025141876 0.15131393 0.1764475
000080 81 7d 0c 3d 93 43 93 3d 05 cf 85 3d 70 d3 5c 3c
       0.034299377 0.07190623 0.065336265 0.013478145
000090 a8 ef 2e 3d 46 7e ed 3d d6 55 b6 bd 76 6b 1b bd
       0.042709023 0.1159635 -0.08903091 -0.03794428
0000a0 d6 1b 36 3e b9 1b b2 3c 68 f5 16 3e 1d ba 15 3d
       0.17784056 0.021741735 0.14742053 0.036554445
0000b0 18 90 b3 3c dd c3 fd 3c 69 90 9e bd e0 35 05 3e
       0.021919295 0.030977184 -0.07742388 0.13008833
0000c0 e4 cd 33 3e ea bd 94 bd 19 5d 6c 3d 07 b0 2a 3e
       0.1755901 -0.07262786 0.057705972 0.16668712
0000d0 bc e2 fd 3d e7 ed f7 3c 37 af b8 bc f3 ce 30 bd
       0.12396762 0.030264808 -0.022544486 -0.043166112
0000e0 3c 6d 9b 3d a0 86 9c 3d 2f ae 0d 3e 35 ee 72 3d
       0.07589194 0.07642865 0.13835977 0.059309203
0000f0 1b 2b 01 3e 9f a0 5e bd 5e 8a 86 3d 31 47 d8 3c
       0.126141 -0.0543524 0.0656936 0.026401134
000100 67 40 61 3d da c2 a8 3d db e1 1d 3e eb 24 ec 3c
       0.05499306 0.0824029 0.15418188 0.028826198
000110 97 4b e5 3d 6a 80 b3 3d e0 40 04 3e 51 74 14 3e
       0.11196058 0.087647274 0.12915373 0.14497496
000120 6c 29 2c 3d b6 47 d7 bd 86 f9 b0 3c c5 d6 2d 3d
       0.04203169 -0.10511725 0.021603357 0.04244115
000130 99 ec 97 3c fe 54 c1 3d dc 5f 01 3e 74 ca 05 3d
       0.018545436 0.09440039 0.12634224 0.032663777
000140 03 ac 42 3d 18 b4 37 3d dc 6b e3 3d f2 cf f9 3d
       0.047527324 0.044849485 0.11104557 0.121978655
000150 29 92 06 3d d1 f8 92 bd 58 88 8b 3d 66 bc 0b 3d
       0.032854233 -0.07176364 0.06813115 0.034115218
000160 a6 c3 b2 3d e3 dc bf 3d b3 56 b3 bd bc 19 30 3e
       0.08728723 0.09368303 -0.08756771 0.17197317
000170 6d c9 a6 3d d6 08 29 bd 47 0c c3 3d aa 40 23 3e
       0.08143888 -0.041268192 0.09523826 0.15942636
000180 61 3b 2e 3c 13 7c 94 3a 89 69 f9 bc d2 0c 01 3d
       0.010634274 0.0011328481 -0.03044583 0.031506367
000190 b7 01 08 3e 6d 53 29 3d 05 97 2b 3e 50 3e ff bc
       0.13281904 0.041339327 0.16756828 -0.031157643
0001a0 2b 3a fb 3d b8 e0 0b 3e cf fc b6 3d 9d 3d c6 3c
       0.12266954 0.13659942 0.08934938 0.024199301
0001b0 86 0b 14 3e 24 d2 9f 3d 59 84 44 3d 36 d8 ef 3d
       0.14457521 0.07803753 0.04797778 0.11711161
0001c0 90 b9 c2 3d 55 1d ec 3d ef d5 38 3d 3a eb a9 3d
       0.095080495 0.11529032 0.045125898 0.08296819
0001d0 ac 27 f8 3c d0 b7 da 3d ef ed 3f bb 05 d2 40 3d
       0.030292355 0.10679591 -0.0029286107 0.04707529
0001e0 3e 2f bd 3d 56 60 fa bd 8e dd 3c 3d b5 90 20 3e
       0.09237526 -0.12225406 0.04610973 0.15680201
0001f0 0d 5b 45 bd c5 b4 21 3e 54 10 03 3e c4 7c e6 3d
       -0.048182536 0.15791614 0.12799197 0.11254266
000200 b3 71 94 ba 77 2b 67 bd e0 5f 3a 3b 13 19 11 bd
       -0.0011325389 -0.056437936 0.0028438494 -0.035424303
000210 24 60 0c 3d 17 83 de 3c 67 5a 91 bd 17 8f 78 bd
       0.034271374 0.027162118 -0.07097321 -0.060683336
000220 e0 4c a4 3d 64 86 46 3d 89 2d 85 3d 80 11 cf bc
       0.08022475 0.04846801 0.06502826 -0.0252769
000230 05 a2 53 bd 16 e7 91 bd 60 4f e9 bb 7a 44 ae bd
       -0.051668186 -0.07124154 -0.007120058 -0.085091546
000240 12 8e 1b 3d 68 61 28 3c 5c c0 d2 bc ec dc ba 3c
       0.037977286 0.01027713 -0.02572649 0.022810422
000250 00 c9 55 bb d9 37 a5 3d 76 f8 6f 3d a4 17 27 bd
       -0.0032621026 0.08067293 0.05858656 -0.04079403
000260 a8 dc b4 bd ed 99 31 bd c3 3d bf bd 20 3f 7a bb
       -0.08831149 -0.043359686 -0.09337952 -0.0038184598
000270 75 33 a3 bd d9 5c 43 3d bc 24 94 bd ee e1 46 bd
       -0.07968799 0.04769597 -0.07233569 -0.048555307
000280 e5 db 04 3d ca 67 fc bb 82 9d 97 bd 24 57 0a 3d
       0.03243627 -0.0077028023 -0.07403089 0.03377451
000290 ea 3f 01 bd 2f 41 b4 bd 8f 6b 84 3d d0 2c 85 3b
       -0.031555094 -0.08801495 0.06465828 0.00406418
0002a0 fa fd 14 bd aa b3 d9 bc 39 59 31 bb 1c 97 f9 3b
       -0.036375023 -0.026574928 -0.0027061237 0.0076168906
0002b0 95 a9 71 3d 2e 43 08 bd 5e 6c 94 3d 99 9e 30 3d
       0.058999617 -0.033267193 0.07247232 0.04312
0002c0 de b9 fa 3c d5 f5 a2 3d c3 97 b1 bd f1 65 df 3c
       0.030606207 0.07957045 -0.086715244 0.02727029
0002d0 b0 d7 91 3c 90 8f 42 bd 47 64 13 bd 58 2a 33 3c
       0.017803043 -0.047500193 -0.035984304 0.0109353885
0002e0 3a ee af bc 0e 32 dd 3c 10 6f eb 3c e0 dc fe bc
       -0.0214759 0.027001407 0.028739482 -0.03111118
0002f0 59 99 7e bd 4a c8 61 3d 9f 7f 26 3d 65 b9 6f 3d
       -0.062157962 0.05512265 0.040649053 0.058526415
000300 64 cc e3 3c 23 c9 2a bd d8 16 cc 3c 1e 40 96 3d
       0.027807422 -0.041695725 0.024913236 0.07336448
000310 b0 ac 0e bc 16 81 24 3d fe 8c e5 bc 56 34 8b 3d
       -0.008708164 0.04016217 -0.028021332 0.06797092
000320 25 5c 51 3d 0a 83 2a bd ba 57 50 bd 2d 8d 46 bd
       0.051113266 -0.041628875 -0.050864913 -0.04847448
000330 08 83 61 3d 7d 69 a1 3d c8 35 d6 bc 00 38 b7 3b
       0.0550566 0.078814484 -0.026148692 0.0055913925
000340 90 27 4d bd 7f 3c a7 bd c0 ff cb bc 28 4a 4a bd
       -0.050086558 -0.081658356 -0.024902225 -0.049387127
000350 20 5d e7 3b 7e 14 7e 3d 68 6f 9d bd 92 68 86 bd
       0.007060662 0.06203126 -0.07687265 -0.06562914
000360 fd 63 2e 3c 11 62 ae 3d 90 84 1a bc ea d4 4d 3d
       0.010643956 0.085147984 -0.009431019 0.05025188
000370 c5 d7 fb 3c c2 e6 74 3d 1d 54 67 3c 48 b0 de bc
       0.030742535 0.05979038 0.014119175 -0.027183667
000380 1b 93 64 bd 80 2a 2a ba 09 da b1 bd 26 2e f9 3c
       -0.055804353 -0.00064913183 -0.08684165 0.030417513
000390 98 cc 59 bd 82 b2 f7 3c 30 13 9f bb b5 31 0f 3d
       -0.05317363 0.030236486 -0.0048545823 0.034959514
0003a0 27 36 a0 bd d8 40 7d bc 91 37 30 3d 8f bf 81 bd
       -0.07822829 -0.0154573545 0.043021742 -0.06335365
0003b0 c7 21 05 bd 16 0c 1c bd 7c ff 29 bd f7 d6 73 bd
       -0.032502916 -0.038097464 -0.041503415 -0.05953118
0003c0 be 57 a9 bd cc 0a c4 3c 49 e8 b4 3d 30 97 43 bc
       -0.082686886 0.02393093 0.088333674 -0.011937901
0003d0 bc e9 9b bd 1c cc 3b 3d bd d7 46 bd 24 a3 a0 3d
       -0.07612941 0.04584895 -0.048545588 0.078436166
0003e0 ea 90 6d 3d c0 c7 dc bb 74 30 87 bc 81 df b4 3d
       0.05799953 -0.0067376792 -0.016502596 0.088316925
0003f0 7a e4 5a bd 01 d9 af bd 39 6e 5e bd 89 e1 c3 3c
       -0.05344055 -0.08586312 -0.054304335 0.023911254

bias f4 [256]
000000 40 3b 97 3d 67 7e d3 bc 07 17 df 3c 24 14 41 3e
       0.07384348 -0.02581711 0.02723266 0.1885534
000010 be ad ed 3c ec 4e 97 3d 55 eb 8f 3d 4f 5f 5c 3d
       0.02901351 0.073881 0.07027308 0.05380183
000020 04 71 b0 3b 1c be 7f bd 72 a7 05 bd 7e 56 ea 3d
       0.0053845663 -0.06243716 -0.03263039 0.11442278
000030 6a 9d d1 3d 1e c8 20 3e 5c c2 21 3e c1 bd 38 3e
       0.102351025 0.15701339 0.15796798 0.18041135
000040 6d ba fa 39 95 fd ff 3d ad 87 55 3d 43 2b 48 3e
       0.00047822614 0.12499539 0.052131344 0.19547753
000050 63 b2 21 3d 1c f9 f5 3c 47 ef 28 3e aa a5 66 bd
       0.039476763 0.030026011 0.16497527 -0.056310333
000060 8e 51 40 3e c6 5b 86 bd cc d4 1b 3d 2d 7d 60 3d
       0.1878111 -0.06560473 0.038044736 0.054806877
000070 9a ec 6e 3c 14 a7 d9 3c 14 68 4d 3d 20 67 20 3e
       0.014582777 0.026568927 0.050148085 0.15664339
000080 3c e7 78 bd 12 e2 30 3e 2a 86 04 3e 02 8d 71 3d
       -0.060767397 0.17273739 0.12941805 0.058972366
000090 4b 9e a7 bd cc e1 6b 3d de 6c 8d bd 80 23 77 3a
       -0.08184489 0.057588384 -0.069055304 0.0009427592
0000a0 9a 53 9f 3d 23 3a 8e 3d 0f f1 85 3c 8c f6 a5 3c
       0.077796176 0.069446824 0.016350297 0.020259164
0000b0 bb be bc bd 6c dd 08 3d 15 55 f1 3d 16 0a 23 3e
       -0.092160664 0.03341429 0.11783806 0.15921816
0000c0 1d 41 30 3e cc 2f 8a 3d 04 ee c1 bd d2 bc 16 bd
       0.17212339 0.06747398 -0.09469226 -0.036801167
0000d0 b2 a1 02 3d c4 ac ac bd 85 6b c1 3d 52 14 0d 3d
       0.031892486 -0.0843139 0.09444336 0.034443207
0000e0 89 d0 fd 3d f9 cc 8d bd 0d 99 72 bd 16 85 4b 3d
       0.123932905 -0.06923861 -0.05922799 0.049687468
0000f0 62 d1 36 3e c8 ea 48 bd 20 47 2d 3e bb 62 bf 3c
       0.1785331 -0.04905203 0.16921663 0.023362508
000100 9a aa 8f bd 93 35 9e bd 69 c7 1e 3e b5 e7 78 3d
       -0.070149615 -0.07725062 0.15505756 0.060767848
000110 f0 e4 72 3d 68 38 96 bd 96 a6 fc bc 8b 5f 8e 3d
       0.059300363 -0.073349774 -0.030841153 0.06951817
000120 5c f8 8a 3d ef 41 c6 3c 65 85 3a 3e 3e ad 04 3d
       0.06785652 0.024201361 0.18214948 0.03239178
000130 eb 70 72 bc c1 29 8d 3d 19 38 0c bd ef 7c 00 3d
       -0.01479743 0.068927296 -0.034233186 0.031369146
000140 8e ad 07 3e 01 e0 80 bd 70 6d fe bc 85 3d 9d 3c
       0.132498 -0.06292725 -0.031058043 0.019194374
000150 56 7d 37 3c 70 30 3c bd 98 41 7a bd c6 56 08 3d
       0.011199316 -0.04594463 -0.06109771 0.03328588
000160 d8 e2 13 3d 18 cd e6 3c 35 79 f7 3c e5 62 86 bc
       0.036105007 0.028173968 0.030209163 -0.016404578
000170 43 e0 2b bd c2 43 7f 3c 0b e5 67 bd 1c 23 03 3e
       -0.04196192 0.01558012 -0.056614917 0.12806362
000180 75 15 3c 3b d5 8b 38 3c aa d3 f7 b8 d2 72 e8 3d
       0.0028699313 0.011263807 -0.00011817303 0.11350025
000190 67 c5 6b bd bb ce d3 3d 9a 79 ed 3c 66 e7 93 3d
       -0.057561304 0.10342165 0.028988648 0.0722187
0001a0 72 91 46 3d 0d ec 5e 3d f7 50 a4 bd 9d 52 5b 3d
       0.04847855 0.054424334 -0.08023255 0.053545583
0001b0 1d ad 69 3d 85 bd 01 3e 69 c4 3a 3e b0 2e cb 3c
       0.05704986 0.12669952 0.18238987 0.024802536
0001c0 bd 2b bc bd c1 2b 32 3e 80 dc 29 3e bc 42 0d 3d
       -0.0918803 0.17399503 0.1658802 0.03448747
0001d0 69 92 0c 3d b7 3c 4b 3d 6b 97 8b 3d 57 47 27 3e
       0.034319315 0.04961845 0.0681599 0.16335808
0001e0 82 6b 2c 3e f1 41 1f 3e 81 29 bf bb b1 49 bf 3d
       0.16837886 0.15552498 -0.005833805 0.093402274
0001f0 96 9e 3d bd 03 c8 cd 3d fd c8 79 3d 39 8d c6 3d
       -0.046293817 0.10047915 0.060982693 0.09694905
000200 72 5a e5 3c 3b 5e 73 bd a1 39 c8 3d 99 63 1f 3e
       0.02799723 -0.059416037 0.09776617 0.15565337
000210 fa 67 bd 3b 34 39 af 3d 00 2f 39 bd da 95 22 3e
       0.0057802172 0.085558325 -0.04521084 0.15877476
000220 ca 2b 46 3d 94 ad 3f 3e 00 6f 19 3a fc fc b1 3d
       0.048381604 0.18718559 0.0005853027 0.08690831
000230 ad dc b5 3b da 61 e9 3d de 8b f5 bc aa 7d ba bd
       0.0055499882 0.11395617 -0.02997392 -0.09106
000240 ee 8b 8a 3d 6f 24 b2 3d 51 b2 34 3e e4 2a 0c 3e
       0.06764971 0.086983554 0.17646147 0.13688236
000250 a3 b9 0b 3d b9 f3 bc 3d 98 1a 70 bd b4 9d 81 3d
       0.034112584 0.09226174 -0.05861911 0.063289076
000260 b2 36 7c 3d 48 aa 68 3d 0b c7 a4 3c ac 28 db 3d
       0.0615756 0.056803018 0.020114442 0.10701117
000270 c0 6b 9e bd 53 8d 64 bd fc c6 98 bc b8 ee af bd
       -0.077353954 -0.05579884 -0.01864957 -0.08590454
000280 be e3 84 3d f1 a8 2a 3e c8 f7 e9 39 79 db 86 3d
       0.06488751 0.16666009 0.00044625835 0.0658483
000290 e1 91 2c 3d d1 0c a1 3d 38 68 b2 bd a5 96 72 3d
       0.04213131 0.07863773 -0.087112844 0.059225697
0002a0 b5 7b ce bc 0f 45 90 3c 3f 70 06 3e 95 ff 32 3e
       -0.025205472 0.017611055 0.13128756 0.1748031
0002b0 c0 2c 98 3c 26 a3 a7 3d fe 4e d6 3d 7f 84 1f bd
       0.018576026 0.08185415 0.10464285 -0.038944717
0002c0 f1 66 10 3e 15 3b 6d 3c 07 b9 b0 bd 60 e6 b6 3b
       0.14101769 0.014479418 -0.08629041 0.005581662
0002d0 3d 55 85 bd b3 f6 85 3c 0c d3 b7 bd 6f 34 c2 3c
       -0.065103985 0.016352987 -0.08975801 0.023706643
0002e0 4a 80 04 3e 13 fc b9 3d 97 20 9b bc 52 8c 19 3e
       0.12939563 0.090812825 -0.018936438 0.14994934
0002f0 59 82 aa 3c 02 f4 51 3d 7f b2 e1 3d 2d 5d 11 3e
       0.020814108 0.051258095 0.110203736 0.141957
000300 da a0 25 bd 74 b8 01 3e 74 d9 40 bd e4 f7 96 bc
       -0.040436603 0.1266802 -0.04708238 -0.01842875
000310 fc 7f 4f bb f0 82 fd 3d a2 c1 e0 3d bf fb a3 bd
       -0.0031661978 0.1237849 0.109744325 -0.08007001
000320 f0 95 77 3d bc 0d 8d 3d cd a3 23 3e 9f ec a8 bd
       0.060445726 0.06887385 0.15980454 -0.08248257
000330 05 3a 7e 3d 18 7d a7 bd 20 16 08 3e fb 53 8a bd
       0.06206705 -0.081781566 0.1328969 -0.06754299
000340 c9 a2 0d 3e d0 0e f3 3c 6b 10 97 3d 7d 62 66 bd
       0.13831629 0.02967015 0.07376178 -0.05624627
000350 c0 41 d8 3b 53 3e ba 3c 60 6f 18 3d 39 92 31 3e
       0.006599635 0.022734797 0.03721559 0.17340936
000360 2f bc 05 3e 01 a8 84 3d 5d 10 fd 3d aa 18 9d 3d
       0.13060068 0.06477357 0.12356637 0.0767072
000370 87 52 a6 3b cc 70 b0 3d 8a b4 e3 3d 06 f8 aa 3d
       0.005075756 0.08615264 0.111184195 0.08348088
000380 4b c1 09 3d 69 55 90 3d a6 8a ca bd 08 80 0e bc
       0.033631604 0.07047541 -0.09889726 -0.008697517
000390 8c de be 3d d8 b5 1c 3e b7 87 a2 3d 74 13 a4 3c
       0.09319791 0.15303743 0.07936042 0.020028807
0003a0 a9 21 99 bd bc ed 07 3d a0 9f 9d 3d 07 96 03 3e
       -0.07477123 0.033185706 0.07696462 0.128502
0003b0 9c 73 e4 3d cb ca 7c 3d 36 90 ab bc 8a 95 c9 3d
       0.11154863 0.061716836 -0.020942789 0.098429754
0003c0 92 6b 6d bd 27 d3 d7 3d 93 f0 ed 3c f0 8a 01 bd
       -0.057963915 0.10538321 0.029045379 -0.03162664
0003d0 2f 49 a9 3d 00 a9 69 3a fa 3f 98 3c 01 ad c1 bd
       0.08265912 0.00089134276 0.018585194 -0.09456826
0003e0 b8 e3 2e 3e 55 db b4 3d 0a 6e 93 bd 2c ae 53 3d
       0.17079055 0.08830897 -0.07198723 0.051679775
0003f0 8a f6 8c bd ba 55 86 3d 3f a5 05 3d 32 57 ea 3c
       -0.06882961 0.0655932 0.032628294 0.028606031

weight f4 [1, 256]
000000 9c 7d e9 3d 11 81 a7 bc 16 83 85 bd 3d 29 1a 3e
       0.11400911 -0.020447286 -0.06519143 0.15054794
000010 9a ef 20 3e 8d e7 0b 3e c4 06 21 3e 6a 54 e7 3d
       0.157164 0.13662548 0.15725237 0.112953976
000020 2e 42 38 bb 7f 7e fc bc cf 95 a7 bc ac 8f 28 3e
       -0.0028115618 -0.030822037 -0.020457176 0.16461056
000030 24 f4 21 3e c9 15 20 3e f2 5c dd 3d 10 68 22 3e
       0.15815789 0.1563331 0.108087435 0.15860009
000040 69 00 8c bc 4a 3e 07 3e 38 0a f5 bc f0 aa d6 3d
       -0.01709004 0.13207355 -0.0299121 0.104818225
000050 98 63 c3 3d 24 3f 14 3e 10 31 0b 3e 1b 50 d4 3c
       0.095404804 0.14477211 0.13592935 0.025917104
000060 bb 37 01 3e 70 c6 30 bd 10 74 ce bb 2c d6 f4 3d
       0.12618916 -0.043157995 -0.006300457 0.119549125
000070 07 60 b5 bb fb 72 1d 3e 26 98 ef 3d c4 85 10 3e
       -0.005535129 0.15375893 0.11698942 0.14113528
000080 25 90 8d bd 9d e8 fd 3d f9 3c 11 3e 46 cc 0a bd
       -0.06912259 0.12397883 0.14183415 -0.033886217
000090 48 8b 75 bc 26 eb a4 bc 84 26 d2 bc ac 0a 89 3c
       -0.0149868205 -0.020131659 -0.025653131 0.016728722
0000a0 07 e4 20 3e ed 9e 0a 3e 54 14 12 3e cf 76 f4 bc
       0.15711986 0.13537188 0.14265567 -0.029841809
0000b0 c2 fd 38 bd 0e 0c 3e bc b7 65 18 3e c8 fb f6 3d
       -0.045163877 -0.011599554 0.14882551 0.12059742
0000c0 f2 70 29 3e 1d 2a cf 3d 9c 5c 13 bd 3c de ca bc
       0.16546991 0.10115454 -0.03597699 -0.024764173
0000d0 7b 23 49 bd ce ba c3 bb 3f 94 0a 3e c0 11 ef 3c
       -0.049106102 -0.0059731966 0.13533114 0.029183269
0000e0 39 ac de 3d a8 33 57 3c 24 c8 dc bc dd 0e 1e 3e
       0.108726926 0.013134874 -0.026950903 0.15435357
0000f0 b2 fa 12 3e e6 d4 63 3d 19 c9 1a 3e 19 dd 7f 3b
       0.14353445 0.055622958 0.15115775 0.0039041697
000100 6b 0e 58 bd cf 8a 22 bd 2e 65 02 3e 66 f4 8c bb
       -0.052748125 -0.03968316 0.1273391 -0.0043015955
000110 21 33 fc 3d 2f c3 3f bd ca 24 80 bc 63 95 98 bc
       0.123144396 -0.046817 -0.015642542 -0.01862592
000120 b8 3c 0c 3e b7 74 73 bc 81 7c 1e 3e a4 a6 2b 3d
       0.13695037 -0.01485937 0.15477182 0.041906968
000130 8e 6d 1b bd f9 e7 10 bc 7d 91 89 3b c2 0f ac bc
       -0.037946276 -0.008844369 0.0041982518 -0.021003608
000140 db f6 00 3e 09 d6 0e bd 38 a7 55 bd 93 e4 e4 bc
       0.12594168 -0.03487209 -0.052161425 -0.027941024
000150 92 54 a6 bb 73 5f 38 bd 7d 79 b0 bc 6e 39 fe bc
       -0.0050759995 -0.045012902 -0.021542305 -0.031033244
000160 ee c5 08 3e 9b b5 6a 3c 51 e1 88 bc 26 0a 0d 3b
       0.13356754 0.014325525 -0.016709002 0.0021520942
000170 c0 88 92 bc 2e 7c 2a 3e 97 01 83 bd ef 4f 29 3e
       -0.017887473 0.16648933 -0.063967876 0.16534398
000180 a2 fe e6 bc 87 2a 83 bb 58 74 30 bd 35 ed 22 3e
       -0.02819759 -0.0040028724 -0.043079704 0.159108
000190 10 2a 02 bc c9 5e f9 3d 1c 3c 12 3e 12 ab 00 3e
       -0.007944599 0.12176282 0.14280742 0.12565258
0001a0 8a 47 de 3d 6a b1 e7 bc 1f d5 fa bc cb 03 06 3e
       0.10853489 -0.02828284 -0.030619202 0.13087384
0001b0 5e 89 de 3c 4c 1b 09 3e 75 2d 2a 3e 9a 8c 27 3e
       0.027165111 0.13389319 0.16618903 0.16362229
0001c0 8a 07 8b bc af 0c f8 3d 7d 15 10 3e b9 2c fb 3d
       -0.016971368 0.12111794 0.14070697 0.122643895
0001d0 17 21 f9 bb 86 f3 06 bd 7a 6c 16 bd 13 4e d5 3d
       -0.0076028216 -0.032947086 -0.036724545 0.10415282
0001e0 20 0a b7 3d 96 85 0f 3e c8 03 74 bc a3 3b d8 3d
       0.08937478 0.14015803 -0.01489348 0.1055825
0001f0 0b 19 ee bb 4e 9c fa 3d d3 7a d2 bc cf 84 cc 3d
       -0.007266169 0.12236844 -0.025693333 0.09986269
000200 20 b8 4b bd 91 23 a6 bc 1c e9 0b 3e 02 28 d9 3d
       -0.049736142 -0.020280631 0.13663143 0.10603334
000210 52 5f d8 bc ee 83 de 3d 26 d2 be bc f4 c7 df 3d
       -0.02641264 0.10865007 -0.023293566 0.1092681
000220 97 20 10 3e e6 05 0f 3e 7c 35 71 3d 68 ea fb 3d
       0.14074932 0.13967094 0.058888897 0.12300569
000230 94 9d 3c bc 37 4a 27 3e 00 38 e2 38 58 e3 28 bd
       -0.011512179 0.16336904 0.000107869506 -0.041232437
000240 67 ec e0 3d f2 d5 0b 3e 6e b5 26 3e 90 54 1c 3e
       0.1098259 0.13655832 0.16280147 0.15266633
000250 f7 8f 11 3e 27 7f d9 3d 71 83 75 3c 28 af 1c bd
       0.14215074 0.106199555 0.014984951 -0.03825298
000260 c2 1c 63 bd 6e e5 32 bd ee 6d b6 ba 3f b6 2b 3e
       -0.055447347 -0.043675832 -0.001391826 0.1676874
000270 70 c7 e3 bc 17 84 37 3b f4 06 9c bc c2 21 19 3d
       -0.02780506 0.0028002316 -0.019046284 0.03738571
000280 28 a1 08 3e 27 72 fb 3d f2 9a 4d bd c9 a8 0c 3e
       0.13342726 0.12277632 -0.050196595 0.13736261
000290 0a da 21 3e 83 d3 26 3e 79 35 0c bc 0b bf 97 bb
       0.15805832 0.16291623 -0.008557671 -0.0046309284
0002a0 6d 86 22 bd 6b 38 0e 3e 29 4c 02 3e 70 97 23 3e
       -0.03967898 0.13888709 0.12724365 0.15975738
0002b0 73 5a 01 bc 0a 73 de 3d e2 c4 e9 3d 6e 6f 2e bd
       -0.0078951 0.10861786 0.114145055 -0.042586736
0002c0 a2 91 b2 3d 9d 06 49 3c 1b 87 43 bd 1f 1c 19 bd
       0.087191835 0.012269643 -0.04773627 -0.037380334
0002d0 70 54 4f bc 1b e5 1e 3e 57 46 21 bd 71 7b 4e bd
       -0.012654409 0.15517084 -0.039373722 -0.05041069
0002e0 c8 ce a9 3d b0 81 19 3e fe a1 0d bd 65 b0 0a 3e
       0.082913935 0.14990878 -0.034578316 0.13543852
0002f0 16 f5 a4 3b cc 72 84 bc ee b4 e5 3d f3 6e 06 3e
       0.0050340993 -0.01616802 0.1121615 0.13128261
000300 63 f3 2c bd 1d 70 15 3e 84 2e f5 3c 8d 1f 48 bd
       -0.0422243 0.14593549 0.029929407 -0.048858214
000310 b2 54 19 bc eb 33 fd 3d ed 72 14 3e e0 45 54 bd
       -0.009358572 0.12363418 0.14496966 -0.05182445
000320 b0 bd 9d 37 e4 1d df 3d 4d fe 27 3e 31 ca c7 bc
       1.8804189e-05 0.10894373 0.16405602 -0.024388405
000330 ef 85 6f bc 8d 70 d3 3c 80 61 ef 3d 75 15 be bb
       -0.014619335 0.025810504 0.116885185 -0.0058008977
000340 0d 0b ff 3d 50 6e f3 bb ec f7 50 3d 13 4d 3c bd
       0.1245328 -0.0074289218 0.051017687 -0.04597194
000350 27 d0 38 bb 9f b0 e1 3b 58 69 85 3d f9 ad eb 3d
       -0.002820024 0.00688751 0.06514233 0.11507792
000360 52 ff fe 3d ec 08 17 bd 78 be f5 3d e4 d6 23 3e
       0.12451042 -0.036873743 0.1199922 0.15999943
000370 0a 00 07 bd 37 c6 f9 3d 5f c7 0b 3e 93 03 23 3e
       -0.03295902 0.121960096 0.13650273 0.15919332
000380 a2 14 ad 3b 14 dc 9e 3b 25 cc ec bc 48 d9 11 3d
       0.0052820006 0.0048480127 -0.028905937 0.035607606
000390 cc ef e8 3d ce d4 2a 3e 97 ca 06 3e 09 de 26 bd
       0.113738626 0.16682741 0.1316322 -0.040739093
0003a0 17 f1 9e 3b 1d 7c 33 bd c4 32 07 bd 17 de dc 3d
       0.0048505175 -0.043819536 -0.0330074 0.10784548
0003b0 fd be 01 3e cc 31 b7 3b 68 61 81 bb fe 49 0b 3e
       0.12670512 0.005590653 -0.0039483793 0.13602445
0003c0 d0 93 a6 bc d1 f0 1f 3e 3c d1 24 bd f7 f9 bf bc
       -0.020334154 0.15619208 -0.040238604 -0.023434622
0003d0 0b 6f 17 3e 96 af 2a bd f3 29 00 3e 20 75 e7 bb
       0.14788453 -0.041671358 0.12516002 -0.007063523
0003e0 e8 60 02 3e 10 f6 a3 3d 62 e8 41 bd a9 1a a0 bc
       0.1273228 0.08005917 -0.04734076 -0.019543963
0003f0 3d 85 4a bd a0 b2 af bb a3 46 64 3a 72 a3 b6 3a
       -0.049443472 -0.00536187 0.00087080355 0.0013934209
